…
[INFO] loading images...
libpng warning: iCCP: known incorrect sRGB profile
Corrupt JPEG data: 1 extraneous bytes before marker 0xd9
[INFO] data matrix: 385.34MB
[INFO] compiling model...
2018-10-30 01:11:07.101285: I T:\src\github\tensorflow\tensorflow\core\platform\cpu_feature_guard.cc:140] Your CPU supports instructions that this TensorFlow binary was not compiled to use: AVX2
_________________________________________________________________
Layer (type)                 Output Shape              Param #
=================================================================
conv2d_1 (Conv2D)            (None, 96, 96, 32)        896
_________________________________________________________________
activation_1 (Activation)    (None, 96, 96, 32)        0
_________________________________________________________________
batch_normalization_1 (Batch (None, 96, 96, 32)        128
_________________________________________________________________
max_pooling2d_1 (MaxPooling2 (None, 32, 32, 32)        0
_________________________________________________________________
dropout_1 (Dropout)          (None, 32, 32, 32)        0
_________________________________________________________________
conv2d_2 (Conv2D)            (None, 32, 32, 64)        18496
_________________________________________________________________
activation_2 (Activation)    (None, 32, 32, 64)        0
_________________________________________________________________
batch_normalization_2 (Batch (None, 32, 32, 64)        256
_________________________________________________________________
conv2d_3 (Conv2D)            (None, 32, 32, 64)        36928
_________________________________________________________________
activation_3 (Activation)    (None, 32, 32, 64)        0
_________________________________________________________________
batch_normalization_3 (Batch (None, 32, 32, 64)        256
_________________________________________________________________
max_pooling2d_2 (MaxPooling2 (None, 16, 16, 64)        0
_________________________________________________________________
dropout_2 (Dropout)          (None, 16, 16, 64)        0
_________________________________________________________________
conv2d_4 (Conv2D)            (None, 16, 16, 128)       73856
_________________________________________________________________
activation_4 (Activation)    (None, 16, 16, 128)       0
_________________________________________________________________
batch_normalization_4 (Batch (None, 16, 16, 128)       512
_________________________________________________________________
conv2d_5 (Conv2D)            (None, 16, 16, 128)       147584
_________________________________________________________________
activation_5 (Activation)    (None, 16, 16, 128)       0
_________________________________________________________________
batch_normalization_5 (Batch (None, 16, 16, 128)       512
_________________________________________________________________
max_pooling2d_3 (MaxPooling2 (None, 8, 8, 128)         0
_________________________________________________________________
dropout_3 (Dropout)          (None, 8, 8, 128)         0
_________________________________________________________________
flatten_1 (Flatten)          (None, 8192)              0
_________________________________________________________________
dense_1 (Dense)              (None, 1024)              8389632
_________________________________________________________________
activation_6 (Activation)    (None, 1024)              0
_________________________________________________________________
batch_normalization_6 (Batch (None, 1024)              4096
_________________________________________________________________
dropout_4 (Dropout)          (None, 1024)              0
_________________________________________________________________
dense_2 (Dense)              (None, 3)                 3075
_________________________________________________________________
activation_7 (Activation)    (None, 3)                 0
=================================================================
Total params: 8,676,227
Trainable params: 8,673,347
Non-trainable params: 2,880
_________________________________________________________________
[INFO] training network...
WARNING:tensorflow:Variable *= will be deprecated. Use variable.assign_mul if you want assignment to the variable value or 'x = x * y' if you want a new python Tensor object.
…
